nwp/Code/nwp_model.tflite (tflite, 307232 bytes, 13 tensors)

lstm_1/lstm_cell_1/bias f4 [400]
00000000: 7e35 b33d 66e4 0e3e 0abc 78be 12ac 17bd
00000010: 1311 88bd 16c6 ccba 57ef a13d 4327 a43e
00000020: b5f9 cf3d 81cf 253e 1ba6 b73e a133 233e
00000030: 5cc7 22bb e010 59bd 9d4f cf3d e2b9 ba3d
00000040: 4f9e 9e3e 5f6d 1f3d a5cd fe3d 3641 8ebd
00000050: c98b 223e 3bed 5e3e 9f9a 89bd efa0 633e
00000060: 48a4 e43d ffcf 833e 9f47 063d f609 ca3d
00000070: 1216 e13b cac6 063e 8585 863d 98e7 eb3d
00000080: 3e80 1c3e 8a08 f03d aee8 af3d d6f1 0f3d
00000090: 8d6f 8fbc 9973 f83d ce89 b83d e1a5 223e
000000a0: 2b46 463e 0d2d af3c 1a28 ba3d 858f 7cbd
000000b0: 79a5 813c 18ad e8ba 5756 4a3e 2794 753e
000000c0: bd6c 613e 8d5a 2d3e 46f1 dc3d 0770 1c3d
000000d0: 8f33 243d 53e6 f6bb b5ce 833e 80f3 663e
000000e0: 8bed 573e 5167 d2bc 730a cc3d 12e0 fd3d
000000f0: c30e ed3b f777 79bd 10b5 06be dfae 41bc
00000100: 9881 5e3e 251b 83bc c2b0 d0bd 9654 f43d
00000110: cfb6 1c3e f4ad 2d3e 60c6 913d 4820 243e
00000120: ff7d 0c3d 79f4 a93d f233 2b3e 7a1b 683e
00000130: 3972 553e 416b 6e3d b8fb 353e 4f6c 103e
00000140: c81e 473e 3e08 643d aefb 2abd 464d 953e
00000150: 28b3 903e ea46 413d 14e0 ef3c 51de 1fbe
00000160: 3a5a b83d 6a45 313e bfb9 8c3d 06e9 153e
00000170: d7b0 2ebd 4b25 983d 3fcd 803e 7ef6 663d
00000180: fa45 923d 5469 203d f357 573d aa96 693d
00000190: 919a 7f3f ed25 673f c8b8 743f 5ab4 913f
000001a0: 6a85 8d3f d459 7e3f d92e 883f 3254 843f
000001b0: 9796 843f e495 933f 664f 763f 68b1 653f
000001c0: 39b8 893f 5121 903f 21d4 783f 047d 813f
000001d0: aeb7 733f b1bf 803f 883b 863f 07b4 8f3f
000001e0: c3d0 813f c032 893f e504 943f f119 823f
000001f0: afa0 8a3f 52b6 6f3f 8e33 8c3f 6df0 883f
00000200: 42ca 813f acd9 733f 35f2 703f 7e3c 873f
00000210: 542b 8d3f 8712 843f 0fa8 803f b2f3 903f
00000220: 6624 913f eb2c 703f 6dd1 823f 4dd9 793f
00000230: f1e1 593f 110a 723f 3947 743f 693e 743f
00000240: ef0d 8d3f 8367 863f b0ce 8e3f da2f 9c3f
00000250: 296a 813f 22e9 723f c8fe 7e3f f408 873f
00000260: bd0f 773f 2778 8b3f 0294 943f 0eaf 663f
00000270: 9401 843f 4895 9b3f e439 913f c561 853f
00000280: dd91 953f 7012 8a3f abed 763f b02b 833f
00000290: f7dc 743f f1f2 893f baad 983f 56d6 4d3f
000002a0: dc61 713f 90ee 903f 4bd0 823f 3757 883f
000002b0: 22eb 6f3f 218a 763f b360 a33f be68 843f
000002c0: d07c 743f b477 863f 7217 603f fb74 7d3f
000002d0: c8e7 673f 78ef 843f 8592 933f 5abd 7d3f
000002e0: 11f2 853f 9de6 853f 1b37 8f3f 8e2d 973f
000002f0: f68f 863f 3c4d 623f e145 7c3f b029 963f
00000300: a88d 883f ca94 803f ca76 8f3f 651c 843f
00000310: 6a0f 823f dd54 893f 0787 873f bc1c 593f
00000320: 4fda 7ebc 49e5 a83c 9d16 5e3d a370 c13c
00000330: 627b de3d 61ce ca3d 8ba8 08be 03ec 003e
00000340: 2db5 583d da54 34bd 7518 4cbc 743e 793c
00000350: bf1a 0d3e aadb 02be bc06 35bd e833 273d
00000360: 772d 603d f5c2 04be 30cd d4bd 6bf5 03be
00000370: 12a0 613b e231 463d 39d2 e13d 58a6 813c
00000380: 726b 323d 4577 00bd b045 b73d de26 2cbd
00000390: 77c5 61bd b8f9 3cbd 1316 28be 14b0 ad3d
000003a0: bb71 f63d b1a3 babd 87dd 7e3c 377b 443d
000003b0: d506 f7bd 09d8 dfbd 6350 6dbd ff77 22bd
000003c0: b1c6 45bb 5c98 17be 7e93 c1bc b7d3 c3bd
000003d0: 50e7 6a3c ef28 33bd 1c5a f83d 9aac a73b
000003e0: 741c a83d e5c8 72bd 2f91 b6bd 6235 27be
000003f0: b34a d93d dc99 fcbd 06b5 af3c 055a efbc
0.08750437 0.13954315 -0.24290481 -0.037029333 -0.06643882 -0.0015622999 0.079069786 0.32061204
0.1015505 0.16192438 0.35868916 0.15937664 -0.0024838066 -0.05299461 0.10122607 0.091174856
0.30980155 0.038922664 0.12441567 -0.06946032 0.15873636 0.21770184 -0.06718945 0.2222936
0.11164147 0.25744626 0.032783147 0.09865181 0.006869086 0.1316177 0.065684356 0.115187824
0.15283296 0.11720379 0.08589302 0.035142742 -0.017509246 0.121314235 0.09010659 0.1588359
0.19362704 0.021383787 0.0908968 -0.06166031 0.015825974 -0.0017751781 0.19759499 0.23982297
0.22014137 0.16929074 0.10788207 0.038192775 0.040088233 -0.007534781 0.25743642 0.22553825
0.21086709 -0.02568403 0.099629305 0.12396254 0.0072344257 -0.060905423 -0.13155007 -0.011821478
0.21729124 -0.016004154 -0.10189964 0.11930196 0.15304111 0.16960889 0.07117915 0.1602794
0.034299847 0.082985826 0.16719034 0.22666731 0.20844354 0.058207754 0.17771804 0.14103816
0.19445336 0.055671923 -0.041743927 0.29160517 0.28261685 0.04718677 0.029281653 -0.1561215
0.09001584 0.17311636 0.06871366 0.14639673 -0.042649116 0.07428988 0.2515659 0.056387417
0.07142253 0.03916295 0.05257411 0.05702845 0.99845225 0.90292245 0.95594454 1.1383164
1.105634 0.99355817 1.0639297 1.0338194 1.0358456 1.1530118 0.962149 0.89723825
1.0759345 1.1260167 0.97198683 1.0116277 0.9520215 1.00585 1.0486917 1.1226815
1.0141834 1.0718613 1.1563994 1.0164167 1.0830287 0.93637574 1.0953233 1.0698372
1.0139849 0.95254016 0.9411958 1.0565336 1.1028848 1.0318154 1.0051287 1.132437
1.1339233 0.9381854 1.0220162 0.975972 0.85110384 0.9454661 0.9542118 0.9540773
1.1019877 1.0500339 1.1156826 1.2202103 1.0110523 0.9488698 0.99607515 1.0549607
0.9650839 1.0896043 1.1607668 0.9011086 1.0312982 1.2154932 1.1345792 1.0420462
1.1685139 1.0786877 0.964564 1.0247707 0.95649666 1.0777265 1.1928017 0.80405176
0.94289947 1.1322803 1.0219816 1.0651616 0.9371816 0.9630452 1.2763885 1.0344465
0.9550295 1.050528 0.87535775 0.99006623 0.90588045 1.038558 1.1529089 0.9911705
1.0464498 1.0461003 1.1188692 1.1810777 1.0512683 0.883991 0.98544127 1.1731472
1.066823 1.0045407 1.1208127 1.0321165 1.0160954 1.0729023 1.0588082 0.8480947
-0.0155549785 0.020617144 0.054220784 0.02361328 0.10863377 0.09902645 -0.13345544 0.12590031
0.052907158 -0.044026233 -0.012457003 0.015212644 0.13779734 -0.12779108 -0.044195876 0.040820986
0.05473086 -0.12964995 -0.10390699 -0.12886588 0.0034427685 0.048387416 0.11026425 0.01582639
0.0435595 -0.031363744 0.08948839 -0.042029254 -0.055119958 -0.046136588 -0.1641467 0.0848085
0.12033411 -0.09113253 0.015555746 0.04796907 -0.1206185 -0.10929877 -0.05793799 -0.03966522
-0.0030178244 -0.14804214 -0.0236299 -0.09561866 0.014337376 -0.04374021 0.12126562 0.0051170113
0.08208552 -0.05927362 -0.0891441 -0.16328958 0.10609951 -0.12334034 0.021448623 -0.02921773

lstm/lstm_cell/bias f4 [400]
00000000: 9952 d03d b835 f9bc bf2d 52bc c30d 0e3e
00000010: d4c6 573e 6282 7b3c 4d99 5fbd 426f b33c
00000020: 9a5f 213c 066c 7e3e 7e08 633e 7fe1 9a3c
00000030: d06b 663d 71ef 24bd da8f 343d 9c78 703d
00000040: 5950 dc3d 7bbd 373e 49b5 8b3e e0de 4b3e
00000050: 8a1e 22bd c107 453e 37ed e33d 2cf9 603e
00000060: 33fa 613d 1b37 ea3d 0f3a 1c3e eedf 553e
00000070: 2ac6 5abc 7645 123e 459b 643e 0a18 5fbe
00000080: 500c fb3d d99c 4b3e 900c a93d e88c a33e
00000090: 1d43 d93d c8d1 fbbc 38d6 37bd a41d 503e
000000a0: 6d07 c43d ab1b 80bd 04f5 b03d 7650 fc3d
000000b0: 9ace ae3e 4619 463c af9d be3c 710a 333e
000000c0: 42ea 803e da99 1bb8 408e 85bd 21ef 653c
000000d0: c94e 98bd a9c1 81bc d5d3 683e 64f4 733d
000000e0: 6e10 2f3b 4efa 673e 6469 be3e abde 9e3d
000000f0: 9b94 933d d3e7 413e 628e 253e 5725 dd3d
00000100: 4910 e1bd 65e7 503d 5160 db3d 4a02 163f
00000110: 2377 853e 6e66 163e cfb7 a53c 7a9e 343e
00000120: 843f 9e3e 7475 783e eceb fe3c e08c 9cbc
00000130: 2726 d33d 8a3a 003e 4455 e13d 864b df3d
00000140: 57c7 923e 0a4f 953e cb23 1d3e 2279 ac3d
00000150: 54b2 b63e 78b0 953d 2329 373d 4071 843e
00000160: 858d 993d 6ad0 113e fa96 173e 81fc d33d
00000170: 5219 b93d 3889 ecbd 7075 063d 8a4a 68be
00000180: 3218 b83e 364f 30be 27cb 39bc fc79 a63e
00000190: 6acc 843f 6d18 833f c512 993f c918 a13f
000001a0: f9c5 8a3f 4199 873f 55e1 643f b9e2 973f
000001b0: a6a2 8e3f 9029 3a3f d1b8 8f3f 0596 973f
000001c0: 1d0c 7d3f 33b5 3b3f b6e2 8a3f 884e 8e3f
000001d0: e136 913f 8b3b 953f 985c 9d3f d8ae 713f
000001e0: b823 803f b578 983f daf3 833f b68b 8f3f
000001f0: 0df0 823f 90c5 633f af1d 843f 4649 9d3f
00000200: 1bc5 533f d84a 8c3f b2be 7f3f b25a 8d3f
00000210: ec70 903f d53e 8c3f 9883 9e3f d634 a23f
00000220: faf2 923f e6c2 8b3f 1476 8f3f 9823 903f
00000230: 8b85 9b3f 34da 163f e843 8d3f 7b73 9e3f
00000240: 1278 843f 0893 813f 8807 783f e9d4 5e3f
00000250: 1679 8a3f 0c2b 833f 2294 813f 4daa 3a3f
00000260: 6284 723f ed29 893f 8a2c 913f bbac 833f
00000270: 74af 913f 8512 8d3f cde2 423f 4e2d 8f3f
00000280: 7aa2 853f a638 853f 8ee0 813f 0ba7 893f
00000290: fe8a 843f da47 983f 074c 753f 1abd 823f
000002a0: 8d60 753f c944 973f 8014 8c3f 7b35 8c3f
000002b0: b3b9 9f3f 00de 8d3f 0292 883f 9b20 423f
000002c0: 9a0f 7d3f 8f90 893f b58a 9f3f c5c2 9d3f
000002d0: 2ae0 6a3f 4e10 8f3f 93bf 8a3f 93c0 8d3f
000002e0: 9090 9e3f a73e 523f 7ed4 813f 1321 8c3f
000002f0: 909d 8f3f daa2 953f b53d 943f 469a 823f
00000300: 0bc0 8c3f 3c05 3a3f 8447 5b3f 9f4e 463f
00000310: c3f1 843f 99cf 673f 4e19 943f a6eb 7b3f
00000320: cd1d 433d 7946 c73c bc33 b53d bc07 023d
00000330: 61c2 573e 088d f1bd 2997 eabd 3b7e acbd
00000340: cb82 0dbe 7924 6a3e 3940 8bbc 453d 403c
00000350: e7dc 71bd f736 43bd 5bb7 09bd 104f 81bd
00000360: ec1e 423d c4b9 203e c375 543d 5fbe 9cbd
00000370: f1b6 bcbd 7c21 9ebc 9748 21be 776e a2bd
00000380: 8810 2cbd 4655 bebd 68d1 8d3c 4a84 d93a
00000390: 63e4 3c3e c34d dabd f35d bb3b f627 fcbd
000003a0: 0e8e 683c d6b7 1bbe 01e0 6b3e afc9 7a3d
000003b0: cd15 52be 6036 32be e2e3 8fbd 7088 eabd
000003c0: 3720 c03d e612 643d 56ca 053e d8c9 2dbe
000003d0: 6c81 1c3e 1e77 923d 840c 09be a5a9 373e
000003e0: f4f0 c3bd 4265 adbd 8a4d edbc 308d f73c
000003f0: 5c1c 8c3d af66 ee3d 800d 98bd dc41 363d
0.10172004 -0.030421123 -0.0128282895 0.13872437 0.2107194 0.01535091 -0.05458956 0.021903638
0.009849453 0.24845895 0.22171208 0.018906353 0.05625516 -0.04026741 0.0440825 0.058708772
0.107575126 0.17943375 0.27286747 0.19909239 -0.039579906 0.19241239 0.111292295 0.21970052
0.05517025 0.11436292 0.15256523 0.20886204 -0.01335291 0.1428431 0.22324856 -0.21786514
0.12258208 0.19884051 0.08254349 0.3194344 0.10608504 -0.03073968 -0.04488203 0.20323807
0.09571729 -0.06255277 0.08640483 0.12320034 0.34142 0.012090987 0.023268549 0.17484452
0.25178725 -3.7098165e-05 -0.06521273 0.014034064 -0.07436902 -0.015839415 0.22737058 0.05955924
0.0026712674 0.22654077 0.37189782 0.07757314 0.072060786 0.1893609 0.16167596 0.10798138
-0.10989434 0.051001925 0.1071173 0.5859724 0.26067457 0.14687511 0.020229248 0.17638579
0.30907834 0.24263555 0.031118356 -0.019110143 0.10310011 0.12522331 0.11002591 0.10903077
0.2866771 0.29161865 0.15345685 0.08421542 0.3568293 0.07309049 0.044716965 0.25867653
0.07497696 0.1423966 0.14803687 0.10350896 0.090380326 -0.1154961 0.03282684 -0.22684684
0.3595596 -0.17217717 -0.011339939 0.32514942 1.0374882 1.0241829 1.1958853 1.2585689
1.0841666 1.0593644 0.8940633 1.1866065 1.1143386 0.7271967 1.1228276 1.1842657
0.9884661 0.73323363 1.0850437 1.1117716 1.1344873 1.1658796 1.2293882 0.94407415
1.00109 1.1911837 1.0308793 1.1214511 1.0229508 0.8897333 1.0321559 1.2287986
0.82722634 1.096034 0.9990035 1.1043303 1.1284461 1.0956675 1.2383909 1.2672374
1.14804 1.0918853 1.120791 1.1260862 1.2150129 0.589267 1.1036348 1.2378992
1.0349143 1.0122995 0.9688649 0.87043625 1.0818202 1.0247512 1.0123332 0.7291611
0.9473325 1.071592 1.1341717 1.0287088 1.1381669 1.1021277 0.7612732 1.1185701
1.0440209 1.0407913 1.0146654 1.0754102 1.0354917 1.1896927 0.95819134 1.0213959
0.9585045 1.1817867 1.0943756 1.0953821 1.2478546 1.1083374 1.0669558 0.75831
0.9885193 1.0747241 1.2464205 1.2325064 0.917483 1.1176851 1.0839714 1.1074394
1.2387867 0.8212685 1.0142972 1.0947593 1.1219959 1.1690323 1.1581331 1.020333
1.0996107 0.7266424 0.85656 0.77463716 1.038628 0.90551144 1.1570222 0.98406446
0.047635842 0.024325596 0.08847758 0.031745657 0.21070243 -0.11794478 -0.11454613 -0.08422514
-0.13819425 0.22865476 -0.016998397 0.011733358 -0.05904856 -0.04765984 -0.033622127 -0.06313908
0.04739277 0.15695864 0.05187012 -0.07653498 -0.09214581 -0.019303076 -0.15750347 -0.07931226
-0.042007953 -0.09293608 0.017311767 0.0016595211 0.18446498 -0.10659363 0.0057179867 -0.123123094
0.014194025 -0.15206847 0.2303467 0.061227497 -0.20516129 -0.17403555 -0.07025887 -0.11451805
0.093811445 0.055682085 0.13065466 -0.16971529 0.15283746 0.07151626 -0.1338368 0.17935808
-0.095674425 -0.08466579 -0.028967638 0.03021869 0.068413466 0.11640679 -0.0742445 0.044496402

embedding/embeddings i1 [1115, 64] scale=0.011765172 zero_point=0
00000000: f2d9 deee e111 30f0 dfcb 1ddf 061c 0bd5
00000010: 07ed 1bf6 eb0a 13e8 12fd 1409 f90a 2119
00000020: f92a 1e14 eace 2707 f0f5 1b1f ea1b f202
00000030: f2e3 edda 1e09 20d9 d120 16ef dae1 0ed6
00000040: ecf4 0aed 0ef8 f2fd f3ff f20b ff05 0500
00000050: 0cf3 f30b fa0a fdfb f304 faf8 02fc ff0b
00000060: f003 f1f9 0505 f90a 07fe f700 0ef3 f9f8
00000070: ff0a fc04 f1fe eaf7 04f9 f2fa f610 ff0e
00000080: eed6 f0fc cf0f 1ce4 e8fb 15dc 1915 edff
00000090: d9ed 0909 fe00 1205 0725 fe00 0306 0d0d
000000a0: 180a 141c d6e7 21da e104 0e15 d809 f233
000000b0: f5fd feff 1617 0be2 e519 29fa f3e7 00e5
000000c0: f2ea cadb c748 2bcf e1c6 4fc3 2d3b 38bb
000000d0: 29e0 2bc0 b708 2adb 3bf8 2b3e e13d 2957
000000e0: e146 463a c7cd 1b2b bad0 4534 b54a c432
000000f0: c4b2 decc 4131 4adc d139 41b9 b9bd 39e4
-0.1647124 -0.4588417 -0.40001583 -0.2117731 -0.3647203 0.20000792 0.56472826 -0.18824275
-0.38825068 -0.6235541 0.34118998 -0.38825068 0.07059103 0.3294248 0.12941688 -0.5059024
0.0823562 -0.22353826 0.31765965 -0.117651716 -0.24706861 0.117651716 0.22353826 -0.28236413
0.2117731 -0.035295516 0.23530343 0.10588655 -0.0823562 0.117651716 0.38825068 0.29412928
-0.0823562 0.49413723 0.35295516 0.23530343 -0.25883377 -0.58825856 0.4588417 0.0823562
-0.18824275 -0.12941688 0.31765965 0.3647203 -0.25883377 0.31765965 -0.1647124 0.023530344
-0.1647124 -0.34118998 -0.22353826 -0.44707653 0.35295516 0.10588655 0.3764855 -0.4588417
-0.5529631 0.3764855 0.25883377 -0.20000792 -0.44707653 -0.3647203 0.1647124 -0.49413723
-0.23530343 -0.14118207 0.117651716 -0.22353826 0.1647124 -0.094121374 -0.1647124 -0.035295516
-0.15294723 -0.011765172 -0.1647124 0.12941688 -0.011765172 0.058825858 0.058825858 0.0
0.14118207 -0.15294723 -0.15294723 0.12941688 -0.07059103 0.117651716 -0.035295516 -0.058825858
-0.15294723 0.047060687 -0.07059103 -0.094121374 0.023530344 -0.047060687 -0.011765172 0.12941688
-0.18824275 0.035295516 -0.17647758 -0.0823562 0.058825858 0.058825858 -0.0823562 0.117651716
0.0823562 -0.023530344 -0.10588655 0.0 0.1647124 -0.15294723 -0.0823562 -0.094121374
-0.011765172 0.117651716 -0.047060687 0.047060687 -0.17647758 -0.023530344 -0.25883377 -0.10588655
0.047060687 -0.0823562 -0.1647124 -0.07059103 -0.117651716 0.18824275 -0.011765172 0.1647124
-0.2117731 -0.49413723 -0.18824275 -0.047060687 -0.57649344 0.17647758 0.3294248 -0.3294248
-0.28236413 -0.058825858 0.24706861 -0.4235462 0.29412928 0.24706861 -0.22353826 -0.011765172
-0.4588417 -0.22353826 0.10588655 0.10588655 -0.023530344 0.0 0.2117731 0.058825858
0.0823562 0.43531135 -0.023530344 0.0 0.035295516 0.07059103 0.15294723 0.15294723
0.28236413 0.117651716 0.23530343 0.3294248 -0.49413723 -0.29412928 0.38825068 -0.44707653
-0.3647203 0.047060687 0.1647124 0.24706861 -0.47060686 0.10588655 -0.1647124 0.60002375
-0.12941688 -0.035295516 -0.023530344 -0.011765172 0.25883377 0.27059895 0.12941688 -0.35295516
-0.31765965 0.29412928 0.48237205 -0.07059103 -0.15294723 -0.29412928 0.0 -0.31765965
-0.1647124 -0.25883377 -0.6353193 -0.43531135 -0.6706148 0.8470924 0.5059024 -0.57649344
-0.3647203 -0.68237996 0.92944854 -0.7176755 0.5294327 0.69414514 0.6588496 -0.81179684
0.48237205 -0.3764855 0.5059024 -0.752971 -0.8588575 0.094121374 0.49413723 -0.43531135
0.69414514 -0.094121374 0.5059024 0.7294406 -0.3647203 0.7176755 0.48237205 1.02357
-0.3647203 0.823562 0.823562 0.68237996 -0.6706148 -0.60002375 0.31765965 0.5059024
-0.823562 -0.56472826 0.81179684 0.6117889 -0.8823879 0.8706227 -0.7059103 0.58825856
-0.7059103 -0.9176834 -0.40001583 -0.6117889 0.7647362 0.57649344 0.8706227 -0.4235462
-0.5529631 0.6706148 0.7647362 -0.8353272 -0.8353272 -0.7882665 0.6706148 -0.3294248

dense_1/bias f4 [1115]
00000000: d08b d5be 7b28 d1bd 65e8 d73d 72f8 0a3e
00000010: 85b3 6f3d 71e2 ba3d 6a21 50be 2b3b 9abe
00000020: ec7f 5abd 475d 893c 7c8f 0a3c 2cda 2b3d
00000030: 2720 e1be 112c d8be b58d 56bd 1c25 23be
00000040: 3574 e7bd 8596 6abd b912 2abd 2d5b 033c
00000050: 1ea0 92bd e9df 3d3d 4f47 79be 5eb7 b43d
00000060: 594f 9fbe e114 933d 43ea 40be ddd6 fdbd
00000070: af7f dcbe bb3a d0be a57c 8c3b 26ff 07be
00000080: 18d9 2abe 98cc 7ebd 84ee 82be 32d9 9ebe
00000090: aace 593c a35c 863d 7c05 7cbd 6d6f d5bd
000000a0: 8ce7 dcbe ad01 6c3d 3efe 0a3d 357b 34bd
000000b0: 2ed1 d03c 5977 25be 657b 0cbe 4ea8 1c3b
000000c0: 0613 16be 1fe6 bcbd fba0 d8be 98c1 dabe
000000d0: 04cc ecbc f4ce 41bd b7d7 fabc 96a3 9dbe
000000e0: 5e36 55bd d74f 28be c227 4ebe eaa6 a03b
000000f0: fb3b 6bbe 1072 90bd 0743 d8be f574 4abe
00000100: e4dd dabe 4113 00be 93bc f3bd efdd 373d
00000110: 7a18 e93c e548 13be 65c1 dbbe 845b dfbe
00000120: 97fa 9dbd 1783 64bc 184e 873d 5b2d b8bc
00000130: 71af 8dbe 50bc dabe 13dc 7abd 56c5 e1bc
00000140: 56cb d43d 2829 8cbe edd7 47be 0bd9 1cbe
00000150: 7c30 953c 75c9 3fbe 6a01 1abd 999d c4bc
00000160: 5fa7 473b 675d e23d 60dc 54be 26a0 a3be
00000170: 1b06 9fbd cb7f 23bc 9733 dd3d 5f99 77be
00000180: 6e34 ffbd d63d 19be 5f7c 2fbe 7721 4f3c
00000190: 767e c4bd 8394 3dbe 8f0c 7d3d dfc5 f7bd
000001a0: ef32 74bd 0e37 e0be 2cca d2bc 975b a1be
000001b0: 7c56 6abd 1379 aabe aa2b 57bd fcaf fabb
000001c0: 7bc9 cabd d8b6 71bd 5259 2b3d 658b babc
000001d0: 70dc 41bd 1840 4ebb de9f cbbc 13e8 5d3d
000001e0: f2f5 64be 7a87 e0be ed68 243d e899 dcbe
000001f0: ed03 d8be fe21 a2bc 71f3 35be b907 953d
00000200: 6204 e33c a45d dbbe d11a cabd a9b6 2fbe
00000210: 3eef 60be 422c 44be ae13 a9bd 1520 f5bd
00000220: 048c 0fbe daea 06be e93b eb3d f806 0bbe
00000230: bf3c dbbe cbaf 4abe 62de 133d bb83 debe
00000240: bfc0 b7bd 6994 0c3e 31a3 8f3d 3912 3b3d
00000250: 647c 7cbd 311e bebd 9b40 71bd c50c 95bb
00000260: 7fcd 09bd 35c4 adbd f222 9cbd 26d3 29bd
00000270: d7e0 b8bd 7bc2 debe 50ac a13d a810 ebbd
00000280: 0220 dbbe 15d9 8bbd 4299 37be 51bb 17be
00000290: 24e9 57be ec98 8ebd 1675 fe3c 74a0 0f3d
000002a0: c14d b93c 8edd 11be 6cdb c73c ce4a 56bd
000002b0: 29af 973c 235c 77be ed7b 22bd 1b50 e4be
000002c0: 800d 05bc 7027 dfbe 7b2e d6bd 51ab 2c3d
000002d0: a695 7ebb c459 c8bd db86 e2be 52a6 05bd
000002e0: daae f1bd 4d30 aabd 1427 37ba 6516 1ebd
000002f0: 5b33 9c3d d5a3 8d3d b5c3 d7bd 5964 61be
00000300: 0c10 16be 35f4 b53d 6e27 40bd 67d4 3ebd
00000310: 5102 433c e489 d33c 3df9 62bd c40b 983d
00000320: e34a 49bd ebab f0bc 117e 873d a78a 243d
00000330: 0c82 8bbd 81b9 57be 13d2 773c 094b 98bd
00000340: 5ac8 4f3d 1724 33bd 5997 aebd 379b 093d
00000350: 2c33 d7be d1de 623d ce8d c33d 9509 383d
00000360: 684e d53d 7823 aa3b 0cd8 a03d 38a4 5dbe
00000370: a7fe 763d ef3b 6dbd be7b 81bc 81e1 16bd
00000380: bfc7 80bd 9f1d af3c 4ac2 063d 0d3c acbd
00000390: c891 e439 6280 bcba a33d b13c 91ec 49bd
000003a0: 73b9 20be f6e8 81be df5b d9bd aad9 d9bd
000003b0: 81cc 0cbd f892 a6bd 8f92 6bbd d550 54bc
000003c0: e3c9 b9bb b3ca f63c 29d4 1a3b ea45 0ebe
000003d0: 97da 933d 5d4f c4bd 7d07 39be 61a2 85bd
000003e0: 9d70 9bbb 5172 953d d136 dfbe 64c5 c0ba
000003f0: b61a a33d 71e8 bb3d 679c bcbd ff07 d53c
-0.4170823 -0.10212799 0.105423726 0.13571337 0.058520813 0.091252215 -0.20325246 -0.30123267
-0.053344652 0.01676811 0.008457061 0.04195611 -0.43969843 -0.4222112 -0.052381236 -0.15932125
-0.113014616 -0.057272453 -0.04152176 0.0080173435 -0.07159446 0.046356115 -0.24343608 0.08824037
-0.31115225 0.07181717 -0.18839364 -0.123944975 -0.43066165 -0.40669808 0.0042873197 -0.13280925
-0.16684377 -0.062206835 -0.25572598 -0.31025082 0.013293901 0.06560638 -0.061528668 -0.104216434
-0.43145406 0.057618786 0.03393387 -0.044062812 0.02549037 -0.16158809 -0.13718946 0.0023904028
-0.14655694 -0.092235796 -0.42310318 -0.42725825 -0.028905876 -0.047316507 -0.030620439 -0.3078887
-0.0520538 -0.16436706 -0.20132354 0.00490271 -0.229721 -0.07053006 -0.42238638 -0.19771178
-0.42747414 -0.12507345 -0.11901202 0.044889387 0.028454054 -0.14383276 -0.42920986 -0.43624508
-0.07713812 -0.01394727 0.06606692 -0.022482565 -0.27672914 -0.42721796 -0.061245035 -0.027559917
0.10390346 -0.2737515 -0.19515963 -0.1531717 0.018211596 -0.18729194 -0.037599005 -0.02400093
0.0030464751 0.11052971 -0.20787191 -0.3195812 -0.077648364 -0.009979199 0.108008556 -0.241796
-0.12461172 -0.14964995 -0.17137288 0.012642256 -0.09594433 -0.18513684 0.061779555 -0.12098288
-0.059618887 -0.43792003 -0.025731169 -0.3151519 -0.057211384 -0.33295497 -0.052531876 -0.0076503735
-0.099017106 -0.059012264 0.04183323 -0.022771547 -0.047329366 -0.0031471308 -0.024856504 0.0541764
-0.22359446 -0.4385336 0.040139128 -0.4308617 -0.42190495 -0.0197916 -0.17768647 0.072768636
0.02771205 -0.4284488 -0.09868396 -0.17159523 -0.21966264 -0.19157508 -0.08255707 -0.1196901
-0.14018255 -0.13175526 0.11486036 -0.13576877 -0.42819783 -0.19793622 0.036100753 -0.43459877
-0.0897231 0.13728489 0.07013548 0.045671675 -0.061642066 -0.09283102 -0.058899503 -0.0045486414
-0.033643242 -0.08484689 -0.07623853 -0.041461132 -0.0902726 -0.43507752 0.07894194 -0.11477786
-0.42797858 -0.068285145 -0.17929557 -0.1481755 -0.2108503 -0.06962761 0.03106169 0.03506513
0.022620084 -0.14244673 0.02439662 -0.052317433 0.01851614 -0.24156241 -0.039668966 -0.44592366
-0.008120894 -0.43584776 -0.10458084 0.042155568 -0.0038846522 -0.097827464 -0.44243512 -0.03262932
-0.118009284 -0.08309994 -0.0006986719 -0.038595576 0.07626983 0.06916014 -0.10535375 -0.22010936
-0.14654559 0.088844694 -0.046912603 -0.04658928 0.011902408 0.025822587 -0.055413473 0.07424119
-0.049143683 -0.029378852 0.06615842 0.04017129 -0.06811914 -0.21066858 0.015125769 -0.07436187
0.05072818 -0.04373559 -0.08524961 0.03359529 -0.4203123 0.055388276 0.095485315 0.044931013
0.104153454 0.0051922165 0.07853708 -0.21644676 0.06030145 -0.057918485 -0.015806075 -0.03683615
-0.062880985 0.02137643 0.032900132 -0.08409891 0.00043596164 -0.0014381523 0.021635836 -0.049297873
-0.15695743 -0.25373048 -0.10613226 -0.10637219 -0.034374718 -0.08133501 -0.057512816 -0.012958725
-0.0056698187 0.030125951 0.0023624992 -0.13893858 0.07219427 -0.0958545 -0.18069263 -0.06525112
-0.004743649 0.07297195 -0.4359651 -0.0014707264 0.07964079 0.09175194 -0.09209519 0.02600479

dense/bias f4 [50]
00000000: 4a8d d13d 7e6b e93b 95b8 95bb 81ad 39bd
00000010: cfaa 7bbd ed40 0d3d a0d9 2e3e ff3d b53e
00000020: f529 3c3e 8a0d d43c dd9e 8fbd 96b1 d8bc
00000030: 47c6 34be 37a4 153e 8a57 eebc aeb6 05bd
00000040: a4a2 c6bd a71d 693d 44ec 63bc cdd9 3c3d
00000050: df31 a0be 9c39 ad3e 9177 aebd 51f9 17be
00000060: 1c72 aebd 485d 9bbd 39af 033d 01cc ccbd
00000070: 51be 8bbd d71a 07be 1dbc 69bc 045a 1ebd
00000080: f8ff b03d 4b5d 883e 27a9 3fbd 9884 bf3e
00000090: 523c 8cbc 567a eebd 7ff0 dcbd e5e3 a53d
000000a0: a0e8 c0bd 615f e53d 320e fa3c c66f c13e
000000b0: 8438 203e 5aed 1ebe 301c ee3e 795b 17bd
000000c0: 5e20 a43d fdde 973d
0.10232027 0.00712341 -0.004569123 -0.04533148 -0.061442193 0.034485746 0.17075205 0.35398862
0.1837538 0.025885362 -0.07012723 -0.026451867 -0.17653762 0.14613424 -0.029094476 -0.03264492
-0.0969899 0.056913044 -0.013911311 0.04610615 -0.3128805 0.33833015 -0.08518899 -0.148412
-0.085178584 -0.07586151 0.032149527 -0.09999848 -0.06823409 -0.13193832 -0.014266041 -0.038660064
0.08642572 0.26633677 -0.046792176 0.37405849 -0.017118607 -0.116444275 -0.107880585 0.08100108
-0.0941937 0.11199833 0.030524347 0.3778059 0.15646559 -0.1552023 0.4650588 -0.03695247
0.08013986 0.074155785

sequential/dense/MatMul i1 [50, 100] scale=0.020576881 zero_point=0
00000000: 2651 0bf3 0205 fefb da06 05ef dbfb e4c2
00000010: f616 041a f8ec 1ffb e812 0fe0 ee09 0422
00000020: fcfc 3026 f027 d522 1a09 32dd dae7 2913
00000030: 25fd fe0d 130e eed4 0b0b da32 06f9 003a
00000040: 1934 1109 d7dd 3e1f 1805 1c06 1be8 0ff2
00000050: 0901 f135 0ef1 e2f6 fcee e8f1 110e 20f6
00000060: 01ef d818 0cfd f714 0b02 1004 fd0d dcfe
00000070: ec02 1bfd 2b17 f5f9 f304 f8ef fc0c 15ea
00000080: fb02 1701 0004 f1e2 0cfe fdfa fdf5 fd18
00000090: 1715 ebf9 f50e f1fe f20f 000f f204 f214
000000a0: cd09 1efb fe0c fa1a 040e 0fe3 fd2a 0410
000000b0: fb10 eb14 16ee f419 ce11 f4ea f5f4 00f2
000000c0: f4fe 1108 ff14 1212 3b15 0ff7 0e0e ea0b
000000d0: d80b 0d2c d2f7 fe1d 1923 0b14 20da 1c32
000000e0: e7f4 19d9 fce0 f42b f8ef 1c23 e806 f1eb
000000f0: 18df 45d8 fbc9 2123 00e4 f324 10f2 e8e0
0.7819215 1.6667274 0.22634569 -0.26749945 0.041153762 0.102884404 -0.041153762 -0.102884404
-0.7819215 0.12346129 0.102884404 -0.349807 -0.7613446 -0.102884404 -0.5761527 -1.2757666
-0.20576881 0.45269138 0.082307525 0.5349989 -0.16461505 -0.41153762 0.6378833 -0.102884404
-0.49384516 0.37038386 0.3086532 -0.6584602 -0.37038386 0.18519193 0.082307525 0.699614
-0.082307525 -0.082307525 0.9876903 0.7819215 -0.3292301 0.80249834 -0.8848059 0.699614
0.5349989 0.18519193 1.0288441 -0.7201908 -0.7819215 -0.51442206 0.8436521 0.39096075
0.7613446 -0.061730646 -0.041153762 0.26749945 0.39096075 0.28807634 -0.37038386 -0.90538275
0.22634569 0.22634569 -0.7819215 1.0288441 0.12346129 -0.14403817 0.0 1.1934592
0.51442206 1.0699978 0.349807 0.18519193 -0.8436521 -0.7201908 1.2757666 0.6378833
0.49384516 0.102884404 0.5761527 0.12346129 0.5555758 -0.49384516 0.3086532 -0.28807634
0.18519193 0.020576881 -0.3086532 1.0905747 0.28807634 -0.3086532 -0.6173064 -0.20576881
-0.082307525 -0.37038386 -0.49384516 -0.3086532 0.349807 0.28807634 0.6584602 -0.20576881
0.020576881 -0.349807 -0.82307523 0.49384516 0.24692258 -0.061730646 -0.18519193 0.41153762
0.22634569 0.041153762 0.3292301 0.082307525 -0.061730646 0.26749945 -0.7407677 -0.041153762
-0.41153762 0.041153762 0.5555758 -0.061730646 0.8848059 0.47326827 -0.22634569 -0.14403817
-0.26749945 0.082307525 -0.16461505 -0.349807 -0.082307525 0.24692258 0.4321145 -0.45269138
-0.102884404 0.041153762 0.47326827 0.020576881 0.0 0.082307525 -0.3086532 -0.6173064
0.24692258 -0.041153762 -0.061730646 -0.12346129 -0.061730646 -0.22634569 -0.061730646 0.49384516
0.47326827 0.4321145 -0.4321145 -0.14403817 -0.22634569 0.28807634 -0.3086532 -0.041153762
-0.28807634 0.3086532 0.0 0.3086532 -0.28807634 0.082307525 -0.28807634 0.41153762
-1.049421 0.18519193 0.6173064 -0.102884404 -0.041153762 0.24692258 -0.12346129 0.5349989
0.082307525 0.28807634 0.3086532 -0.5967296 -0.061730646 0.864229 0.082307525 0.3292301
-0.102884404 0.3292301 -0.4321145 0.41153762 0.45269138 -0.37038386 -0.24692258 0.51442206
-1.0288441 0.349807 -0.24692258 -0.45269138 -0.22634569 -0.24692258 0.0 -0.28807634
-0.24692258 -0.041153762 0.349807 0.16461505 -0.020576881 0.41153762 0.37038386 0.37038386
1.214036 0.4321145 0.3086532 -0.18519193 0.28807634 0.28807634 -0.45269138 0.22634569
-0.82307523 0.22634569 0.26749945 0.90538275 -0.94653654 -0.18519193 -0.041153762 0.5967296
0.51442206 0.7201908 0.22634569 0.41153762 0.6584602 -0.7819215 0.5761527 1.0288441
-0.51442206 -0.24692258 0.51442206 -0.80249834 -0.082307525 -0.6584602 -0.24692258 0.8848059
-0.16461505 -0.349807 0.5761527 0.7201908 -0.49384516 0.12346129 -0.3086532 -0.4321145
0.49384516 -0.6790371 1.4198048 -0.82307523 -0.102884404 -1.1317284 0.6790371 0.7201908
0.0 -0.5761527 -0.26749945 0.7407677 0.3292301 -0.28807634 -0.49384516 -0.6584602

sequential/dense_1/MatMul i1 [1115, 50] scale=0.07024901 zero_point=0
00000000: f8fc fafd fcfe f4f5 fdfe fdfc fbfb fdfd
00000010: fffe fefb fdf5 fffd fefd f5fe fbfd fbfd
00000020: faf3 fdf4 feff fffd fefa fef2 fafe f7fa
00000030: fafb fdfc fffe fdfd e5f4 f6fd fafd f6e3
00000040: fbff 00f9 fd03 fbe8 fefe fbfa fafd f800
00000050: f3f9 02df fccc fed1 fefb fcff fcfd f200
00000060: fefd f7f2 04ee 02fd f8f6 f7f5 f1ff 06fe
00000070: fce3 0802 0003 fcff fcf6 f6fa f9f3 f2fd
00000080: 00fe f605 fcef 04e8 00d3 fffa fe01 fa00
00000090: ec00 dbf8 02f8 fefd fcfe fefd f9f2 eef3
000000a0: fbfe 00e5 01fb 01fc fe01 ffe9 f901 fbfc
000000b0: fdf9 ec04 00f2 01dd f8ea 00fd fefd fc01
000000c0: fe03 01fe e9f4 fef9 01fe fdfe f8fe d9fa
000000d0: f6fd fcfe fefb ff00 ff00 fdf3 fdf5 fffd
000000e0: fdfc f1fe f5f6 ffff f1de fef0 fef9 fffd
000000f0: fdff feff fffe e7e6 00fd 01e6 00fd f8fb
-0.5619921 -0.28099605 -0.42149407 -0.21074703 -0.28099605 -0.14049803 -0.84298813 -0.7727392
-0.21074703 -0.14049803 -0.21074703 -0.28099605 -0.35124508 -0.35124508 -0.21074703 -0.21074703
-0.07024901 -0.14049803 -0.14049803 -0.35124508 -0.21074703 -0.7727392 -0.07024901 -0.21074703
-0.14049803 -0.21074703 -0.7727392 -0.14049803 -0.35124508 -0.21074703 -0.35124508 -0.21074703
-0.42149407 -0.91323715 -0.21074703 -0.84298813 -0.14049803 -0.07024901 -0.07024901 -0.21074703
-0.14049803 -0.42149407 -0.14049803 -0.9834862 -0.42149407 -0.14049803 -0.63224113 -0.42149407
-0.42149407 -0.35124508 -0.21074703 -0.28099605 -0.07024901 -0.14049803 -0.21074703 -0.21074703
-1.8967234 -0.84298813 -0.70249015 -0.21074703 -0.42149407 -0.21074703 -0.70249015 -2.0372214
-0.35124508 -0.07024901 0.0 -0.4917431 -0.21074703 0.21074703 -0.35124508 -1.6859763
-0.14049803 -0.14049803 -0.35124508 -0.42149407 -0.42149407 -0.21074703 -0.5619921 0.0
-0.91323715 -0.4917431 0.14049803 -2.3182175 -0.28099605 -3.6529486 -0.14049803 -3.3017037
-0.14049803 -0.35124508 -0.28099605 -0.07024901 -0.28099605 -0.21074703 -0.9834862 0.0
-0.14049803 -0.21074703 -0.63224113 -0.9834862 0.28099605 -1.2644823 0.14049803 -0.21074703
-0.5619921 -0.70249015 -0.63224113 -0.7727392 -1.0537353 -0.07024901 0.42149407 -0.14049803
-0.28099605 -2.0372214 0.5619921 0.14049803 0.0 0.21074703 -0.28099605 -0.07024901
-0.28099605 -0.70249015 -0.70249015 -0.42149407 -0.4917431 -0.91323715 -0.9834862 -0.21074703
0.0 -0.14049803 -0.70249015 0.35124508 -0.28099605 -1.1942332 0.28099605 -1.6859763
0.0 -3.1612055 -0.07024901 -0.42149407 -0.14049803 0.07024901 -0.42149407 0.0
-1.4049803 0.0 -2.5992136 -0.5619921 0.14049803 -0.5619921 -0.14049803 -0.21074703
-0.28099605 -0.14049803 -0.14049803 -0.21074703 -0.4917431 -0.9834862 -1.2644823 -0.91323715
-0.35124508 -0.14049803 0.0 -1.8967234 0.07024901 -0.35124508 0.07024901 -0.28099605
-0.14049803 0.07024901 -0.07024901 -1.6157273 -0.4917431 0.07024901 -0.35124508 -0.28099605
-0.21074703 -0.4917431 -1.4049803 0.28099605 0.0 -0.9834862 0.07024901 -2.4587154
-0.5619921 -1.5454783 0.0 -0.21074703 -0.14049803 -0.21074703 -0.28099605 0.07024901
-0.14049803 0.21074703 0.07024901 -0.14049803 -1.6157273 -0.84298813 -0.14049803 -0.4917431
0.07024901 -0.14049803 -0.21074703 -0.14049803 -0.5619921 -0.14049803 -2.7397115 -0.42149407
-0.70249015 -0.21074703 -0.28099605 -0.14049803 -0.14049803 -0.35124508 -0.07024901 0.0
-0.07024901 0.0 -0.21074703 -0.91323715 -0.21074703 -0.7727392 -0.07024901 -0.21074703
-0.21074703 -0.28099605 -1.0537353 -0.14049803 -0.7727392 -0.70249015 -0.07024901 -0.07024901
-1.0537353 -2.3884664 -0.14049803 -1.1239842 -0.14049803 -0.4917431 -0.07024901 -0.21074703
-0.21074703 -0.07024901 -0.14049803 -0.07024901 -0.07024901 -0.14049803 -1.7562253 -1.8264743
0.0 -0.21074703 0.07024901 -1.8264743 0.0 -0.21074703 -0.5619921 -0.35124508

lstm/lstm_cell/bias1 f4 [400]
00000000: 9952 d03d b835 f9bc bf2d 52bc c30d 0e3e
00000010: d4c6 573e 6282 7b3c 4d99 5fbd 426f b33c
00000020: 9a5f 213c 066c 7e3e 7e08 633e 7fe1 9a3c
00000030: d06b 663d 71ef 24bd da8f 343d 9c78 703d
00000040: 5950 dc3d 7bbd 373e 49b5 8b3e e0de 4b3e
00000050: 8a1e 22bd c107 453e 37ed e33d 2cf9 603e
00000060: 33fa 613d 1b37 ea3d 0f3a 1c3e eedf 553e
00000070: 2ac6 5abc 7645 123e 459b 643e 0a18 5fbe
00000080: 500c fb3d d99c 4b3e 900c a93d e88c a33e
00000090: 1d43 d93d c8d1 fbbc 38d6 37bd a41d 503e
000000a0: 6d07 c43d ab1b 80bd 04f5 b03d 7650 fc3d
000000b0: 9ace ae3e 4619 463c af9d be3c 710a 333e
000000c0: 42ea 803e da99 1bb8 408e 85bd 21ef 653c
000000d0: c94e 98bd a9c1 81bc d5d3 683e 64f4 733d
000000e0: 6e10 2f3b 4efa 673e 6469 be3e abde 9e3d
000000f0: 9b94 933d d3e7 413e 628e 253e 5725 dd3d
00000100: 4910 e1bd 65e7 503d 5160 db3d 4a02 163f
00000110: 2377 853e 6e66 163e cfb7 a53c 7a9e 343e
00000120: 843f 9e3e 7475 783e eceb fe3c e08c 9cbc
00000130: 2726 d33d 8a3a 003e 4455 e13d 864b df3d
00000140: 57c7 923e 0a4f 953e cb23 1d3e 2279 ac3d
00000150: 54b2 b63e 78b0 953d 2329 373d 4071 843e
00000160: 858d 993d 6ad0 113e fa96 173e 81fc d33d
00000170: 5219 b93d 3889 ecbd 7075 063d 8a4a 68be
00000180: 3218 b83e 364f 30be 27cb 39bc fc79 a63e
00000190: 6acc 843f 6d18 833f c512 993f c918 a13f
000001a0: f9c5 8a3f 4199 873f 55e1 643f b9e2 973f
000001b0: a6a2 8e3f 9029 3a3f d1b8 8f3f 0596 973f
000001c0: 1d0c 7d3f 33b5 3b3f b6e2 8a3f 884e 8e3f
000001d0: e136 913f 8b3b 953f 985c 9d3f d8ae 713f
000001e0: b823 803f b578 983f daf3 833f b68b 8f3f
000001f0: 0df0 823f 90c5 633f af1d 843f 4649 9d3f
00000200: 1bc5 533f d84a 8c3f b2be 7f3f b25a 8d3f
00000210: ec70 903f d53e 8c3f 9883 9e3f d634 a23f
00000220: faf2 923f e6c2 8b3f 1476 8f3f 9823 903f
00000230: 8b85 9b3f 34da 163f e843 8d3f 7b73 9e3f
00000240: 1278 843f 0893 813f 8807 783f e9d4 5e3f
00000250: 1679 8a3f 0c2b 833f 2294 813f 4daa 3a3f
00000260: 6284 723f ed29 893f 8a2c 913f bbac 833f
00000270: 74af 913f 8512 8d3f cde2 423f 4e2d 8f3f
00000280: 7aa2 853f a638 853f 8ee0 813f 0ba7 893f
00000290: fe8a 843f da47 983f 074c 753f 1abd 823f
000002a0: 8d60 753f c944 973f 8014 8c3f 7b35 8c3f
000002b0: b3b9 9f3f 00de 8d3f 0292 883f 9b20 423f
000002c0: 9a0f 7d3f 8f90 893f b58a 9f3f c5c2 9d3f
000002d0: 2ae0 6a3f 4e10 8f3f 93bf 8a3f 93c0 8d3f
000002e0: 9090 9e3f a73e 523f 7ed4 813f 1321 8c3f
000002f0: 909d 8f3f daa2 953f b53d 943f 469a 823f
00000300: 0bc0 8c3f 3c05 3a3f 8447 5b3f 9f4e 463f
00000310: c3f1 843f 99cf 673f 4e19 943f a6eb 7b3f
00000320: cd1d 433d 7946 c73c bc33 b53d bc07 023d
00000330: 61c2 573e 088d f1bd 2997 eabd 3b7e acbd
00000340: cb82 0dbe 7924 6a3e 3940 8bbc 453d 403c
00000350: e7dc 71bd f736 43bd 5bb7 09bd 104f 81bd
00000360: ec1e 423d c4b9 203e c375 543d 5fbe 9cbd
00000370: f1b6 bcbd 7c21 9ebc 9748 21be 776e a2bd
00000380: 8810 2cbd 4655 bebd 68d1 8d3c 4a84 d93a
00000390: 63e4 3c3e c34d dabd f35d bb3b f627 fcbd
000003a0: 0e8e 683c d6b7 1bbe 01e0 6b3e afc9 7a3d
000003b0: cd15 52be 6036 32be e2e3 8fbd 7088 eabd
000003c0: 3720 c03d e612 643d 56ca 053e d8c9 2dbe
000003d0: 6c81 1c3e 1e77 923d 840c 09be a5a9 373e
000003e0: f4f0 c3bd 4265 adbd 8a4d edbc 308d f73c
000003f0: 5c1c 8c3d af66 ee3d 800d 98bd dc41 363d
0.10172004 -0.030421123 -0.0128282895 0.13872437 0.2107194 0.01535091 -0.05458956 0.021903638
0.009849453 0.24845895 0.22171208 0.018906353 0.05625516 -0.04026741 0.0440825 0.058708772
0.107575126 0.17943375 0.27286747 0.19909239 -0.039579906 0.19241239 0.111292295 0.21970052
0.05517025 0.11436292 0.15256523 0.20886204 -0.01335291 0.1428431 0.22324856 -0.21786514
0.12258208 0.19884051 0.08254349 0.3194344 0.10608504 -0.03073968 -0.04488203 0.20323807
0.09571729 -0.06255277 0.08640483 0.12320034 0.34142 0.012090987 0.023268549 0.17484452
0.25178725 -3.7098165e-05 -0.06521273 0.014034064 -0.07436902 -0.015839415 0.22737058 0.05955924
0.0026712674 0.22654077 0.37189782 0.07757314 0.072060786 0.1893609 0.16167596 0.10798138
-0.10989434 0.051001925 0.1071173 0.5859724 0.26067457 0.14687511 0.020229248 0.17638579
0.30907834 0.24263555 0.031118356 -0.019110143 0.10310011 0.12522331 0.11002591 0.10903077
0.2866771 0.29161865 0.15345685 0.08421542 0.3568293 0.07309049 0.044716965 0.25867653
0.07497696 0.1423966 0.14803687 0.10350896 0.090380326 -0.1154961 0.03282684 -0.22684684
0.3595596 -0.17217717 -0.011339939 0.32514942 1.0374882 1.0241829 1.1958853 1.2585689
1.0841666 1.0593644 0.8940633 1.1866065 1.1143386 0.7271967 1.1228276 1.1842657
0.9884661 0.73323363 1.0850437 1.1117716 1.1344873 1.1658796 1.2293882 0.94407415
1.00109 1.1911837 1.0308793 1.1214511 1.0229508 0.8897333 1.0321559 1.2287986
0.82722634 1.096034 0.9990035 1.1043303 1.1284461 1.0956675 1.2383909 1.2672374
1.14804 1.0918853 1.120791 1.1260862 1.2150129 0.589267 1.1036348 1.2378992
1.0349143 1.0122995 0.9688649 0.87043625 1.0818202 1.0247512 1.0123332 0.7291611
0.9473325 1.071592 1.1341717 1.0287088 1.1381669 1.1021277 0.7612732 1.1185701
1.0440209 1.0407913 1.0146654 1.0754102 1.0354917 1.1896927 0.95819134 1.0213959
0.9585045 1.1817867 1.0943756 1.0953821 1.2478546 1.1083374 1.0669558 0.75831
0.9885193 1.0747241 1.2464205 1.2325064 0.917483 1.1176851 1.0839714 1.1074394
1.2387867 0.8212685 1.0142972 1.0947593 1.1219959 1.1690323 1.1581331 1.020333
1.0996107 0.7266424 0.85656 0.77463716 1.038628 0.90551144 1.1570222 0.98406446
0.047635842 0.024325596 0.08847758 0.031745657 0.21070243 -0.11794478 -0.11454613 -0.08422514
-0.13819425 0.22865476 -0.016998397 0.011733358 -0.05904856 -0.04765984 -0.033622127 -0.06313908
0.04739277 0.15695864 0.05187012 -0.07653498 -0.09214581 -0.019303076 -0.15750347 -0.07931226
-0.042007953 -0.09293608 0.017311767 0.0016595211 0.18446498 -0.10659363 0.0057179867 -0.123123094
0.014194025 -0.15206847 0.2303467 0.061227497 -0.20516129 -0.17403555 -0.07025887 -0.11451805
0.093811445 0.055682085 0.13065466 -0.16971529 0.15283746 0.07151626 -0.1338368 0.17935808
-0.095674425 -0.08466579 -0.028967638 0.03021869 0.068413466 0.11640679 -0.0742445 0.044496402

while/MatMul_1 i1 [400, 100] scale=0.012771088 zero_point=0
00000000: fef1 ff02 f800 fff6 fa01 0112 0efe fffe
00000010: 10f7 0101 ed07 f8ff 030a f8fc 09f0 070c
00000020: f109 fc01 f903 0806 0a01 03ff f4f7 ff00
00000030: 04fd fe04 fa0f f302 ec04 0d0b 0307 14fc
00000040: fdf3 fb09 f0fa 0aff f60c 10f5 fa09 f8ff
00000050: fcff f8fd fd0e 0115 0712 09ec 0f02 ff0b
00000060: 03fa 0308 f508 f418 f609 1203 f9f5 f2f4
00000070: 0ff3 0bf9 f3f4 edef 0606 010f 01ec ecf0
00000080: f30c ecf8 0915 f318 f202 0911 f9f0 f2f3
00000090: fe02 08f6 0a0d e7fb 04fa 08ec 0b15 fe13
000000a0: f0f7 f0ee 080b ef05 e9e2 f9e7 feee f816
000000b0: 0b00 e6fc 0f08 09ef fb0b eb01 0cfc f10f
000000c0: fe08 18ff 00f3 0a06 f6e9 080b 0702 12f3
000000d0: 03f0 f617 e1f3 0801 1912 f6ec e6fb ebfb
000000e0: 0718 f2ed 05f3 f6fc e4ef 1111 eef6 fd0f
000000f0: 1af9 04f3 f9e6 e7ec 070f f30f 0313 fef3
-0.025542175 -0.19156632 -0.012771088 0.025542175 -0.1021687 0.0 -0.012771088 -0.12771088
-0.076626524 0.012771088 0.012771088 0.22987957 0.17879523 -0.025542175 -0.012771088 -0.025542175
0.2043374 -0.11493979 0.012771088 0.012771088 -0.24265067 0.08939762 -0.1021687 -0.012771088
0.038313262 0.12771088 -0.1021687 -0.05108435 0.11493979 -0.2043374 0.08939762 0.15325305
-0.19156632 0.11493979 -0.05108435 0.012771088 -0.08939762 0.038313262 0.1021687 0.076626524
0.12771088 0.012771088 0.038313262 -0.012771088 -0.15325305 -0.11493979 -0.012771088 0.0
0.05108435 -0.038313262 -0.025542175 0.05108435 -0.076626524 0.19156632 -0.16602413 0.025542175
-0.25542176 0.05108435 0.16602413 0.14048196 0.038313262 0.08939762 0.25542176 -0.05108435
-0.038313262 -0.16602413 -0.06385544 0.11493979 -0.2043374 -0.076626524 0.12771088 -0.012771088
-0.12771088 0.15325305 0.2043374 -0.14048196 -0.076626524 0.11493979 -0.1021687 -0.012771088
-0.05108435 -0.012771088 -0.1021687 -0.038313262 -0.038313262 0.17879523 0.012771088 0.26819283
0.08939762 0.22987957 0.11493979 -0.25542176 0.19156632 0.025542175 -0.012771088 0.14048196
0.038313262 -0.076626524 0.038313262 0.1021687 -0.14048196 0.1021687 -0.15325305 0.3065061
-0.12771088 0.11493979 0.22987957 0.038313262 -0.08939762 -0.14048196 -0.17879523 -0.15325305
0.19156632 -0.16602413 0.14048196 -0.08939762 -0.16602413 -0.15325305 -0.24265067 -0.21710849
0.076626524 0.076626524 0.012771088 0.19156632 0.012771088 -0.25542176 -0.25542176 -0.2043374
-0.16602413 0.15325305 -0.25542176 -0.1021687 0.11493979 0.26819283 -0.16602413 0.3065061
-0.17879523 0.025542175 0.11493979 0.21710849 -0.08939762 -0.2043374 -0.17879523 -0.16602413
-0.025542175 0.025542175 0.1021687 -0.12771088 0.12771088 0.16602413 -0.3192772 -0.06385544
0.05108435 -0.076626524 0.1021687 -0.25542176 0.14048196 0.26819283 -0.025542175 0.24265067
-0.2043374 -0.11493979 -0.2043374 -0.22987957 0.1021687 0.14048196 -0.21710849 0.06385544
-0.29373503 -0.38313264 -0.08939762 -0.3192772 -0.025542175 -0.22987957 -0.1021687 0.28096393
0.14048196 0.0 -0.33204827 -0.05108435 0.19156632 0.1021687 0.11493979 -0.21710849
-0.06385544 0.14048196 -0.26819283 0.012771088 0.15325305 -0.05108435 -0.19156632 0.19156632
-0.025542175 0.1021687 0.3065061 -0.012771088 0.0 -0.16602413 0.12771088 0.076626524
-0.12771088 -0.29373503 0.1021687 0.14048196 0.08939762 0.025542175 0.22987957 -0.16602413
0.038313262 -0.2043374 -0.12771088 0.29373503 -0.3959037 -0.16602413 0.1021687 0.012771088
0.3192772 0.22987957 -0.12771088 -0.25542176 -0.33204827 -0.06385544 -0.26819283 -0.06385544
0.08939762 0.3065061 -0.17879523 -0.24265067 0.06385544 -0.16602413 -0.12771088 -0.05108435
-0.35759047 -0.21710849 0.21710849 0.21710849 -0.22987957 -0.12771088 -0.038313262 0.19156632
0.33204827 -0.08939762 0.05108435 -0.16602413 -0.08939762 -0.33204827 -0.3192772 -0.25542176
0.08939762 0.19156632 -0.16602413 0.19156632 0.038313262 0.24265067 -0.025542175 -0.16602413

while/MatMul i1 [400, 64] scale=0.02134758 zero_point=0
00000000: 1312 1710 1bf1 e013 221a ee16 dfe6 ee13
00000010: 0510 e808 09fb f113 ed03 eff6 03f3 e7df
00000020: ffe1 ebe9 181c e8fa 140e e9e8 2bed 06cc
00000030: 0b19 1222 f0f4 e91a 13e4 e111 240f f927
00000040: f8f5 f7f2 f803 15f5 01eb 04f6 080f 0df3
00000050: 2efd 04fc ef03 05fc 0ee6 040d f604 0b08
00000060: e80a 0c08 05fc 0129 fbfe 0a0b f613 f0e6
00000070: f5f5 02fb 030a 09fa f40e 02f2 f7f4 0405
00000080: 0a05 03fe 05fc f807 0503 f504 f8fa 02ff
00000090: 0201 f9ff 00fb f907 01fc fffd 0200 fe00
000000a0: fcfb f9f7 0b02 f501 0a01 fef6 0df7 07ed
000000b0: 0708 0006 f601 f603 fffe f102 0108 ff07
000000c0: f5f7 fe01 0cfa 03fe fbfb fa05 ff0b 00fa
000000d0: 05f7 020a 0302 0501 fdf7 faf8 fdf9 0204
000000e0: fb00 06ff 0dfa 04ff 0805 fb04 0ff8 fbea
000000f0: 05fe 0204 ff03 fbf6 fe06 f6fe fd07 fbfd
0.40560403 0.38425645 0.49099436 0.3415613 0.57638466 -0.3202137 -0.6831226 0.40560403
0.72581774 0.5550371 -0.38425645 0.46964678 -0.70447016 -0.5550371 -0.38425645 0.40560403
0.106737904 0.3415613 -0.5123419 0.17078064 0.19212823 -0.106737904 -0.3202137 0.40560403
-0.40560403 0.06404274 -0.36290887 -0.21347581 0.06404274 -0.27751854 -0.5336895 -0.70447016
-0.02134758 -0.661775 -0.4482992 -0.49099436 0.5123419 0.59773225 -0.5123419 -0.12808548
0.42695162 0.29886612 -0.49099436 -0.5123419 0.917946 -0.40560403 0.12808548 -1.1100742
0.23482339 0.5336895 0.38425645 0.72581774 -0.3415613 -0.25617096 -0.49099436 0.5550371
0.40560403 -0.59773225 -0.661775 0.36290887 0.7685129 0.3202137 -0.14943306 0.83255565
-0.17078064 -0.23482339 -0.19212823 -0.29886612 -0.17078064 0.06404274 0.4482992 -0.23482339
0.02134758 -0.4482992 0.08539032 -0.21347581 0.17078064 0.3202137 0.27751854 -0.27751854
0.9819887 -0.06404274 0.08539032 -0.08539032 -0.36290887 0.06404274 0.106737904 -0.08539032
0.29886612 -0.5550371 0.08539032 0.27751854 -0.21347581 0.08539032 0.23482339 0.17078064
-0.5123419 0.21347581 0.25617096 0.17078064 0.106737904 -0.08539032 0.02134758 0.8752508
-0.106737904 -0.04269516 0.21347581 0.23482339 -0.21347581 0.40560403 -0.3415613 -0.5550371
-0.23482339 -0.23482339 0.04269516 -0.106737904 0.06404274 0.21347581 0.19212823 -0.12808548
-0.25617096 0.29886612 0.04269516 -0.29886612 -0.19212823 -0.25617096 0.08539032 0.106737904
0.21347581 0.106737904 0.06404274 -0.04269516 0.106737904 -0.08539032 -0.17078064 0.14943306
0.106737904 0.06404274 -0.23482339 0.08539032 -0.17078064 -0.12808548 0.04269516 -0.02134758
0.04269516 0.02134758 -0.14943306 -0.02134758 0.0 -0.106737904 -0.14943306 0.14943306
0.02134758 -0.08539032 -0.02134758 -0.06404274 0.04269516 0.0 -0.04269516 0.0
-0.08539032 -0.106737904 -0.14943306 -0.19212823 0.23482339 0.04269516 -0.23482339 0.02134758
0.21347581 0.02134758 -0.04269516 -0.21347581 0.27751854 -0.19212823 0.14943306 -0.40560403
0.14943306 0.17078064 0.0 0.12808548 -0.21347581 0.02134758 -0.21347581 0.06404274
-0.02134758 -0.04269516 -0.3202137 0.04269516 0.02134758 0.17078064 -0.02134758 0.14943306
-0.23482339 -0.19212823 -0.04269516 0.02134758 0.25617096 -0.12808548 0.06404274 -0.04269516
-0.106737904 -0.106737904 -0.12808548 0.106737904 -0.02134758 0.23482339 0.0 -0.12808548
0.106737904 -0.19212823 0.04269516 0.21347581 0.06404274 0.04269516 0.106737904 0.02134758
-0.06404274 -0.19212823 -0.12808548 -0.17078064 -0.06404274 -0.14943306 0.04269516 0.08539032
-0.106737904 0.0 0.12808548 -0.02134758 0.27751854 -0.12808548 0.08539032 -0.02134758
0.17078064 0.106737904 -0.106737904 0.08539032 0.3202137 -0.17078064 -0.106737904 -0.46964678
0.106737904 -0.04269516 0.04269516 0.08539032 -0.02134758 0.06404274 -0.106737904 -0.21347581
-0.04269516 0.12808548 -0.21347581 -0.04269516 -0.06404274 0.14943306 -0.106737904 -0.06404274

lstm_1/lstm_cell_1/bias1 f4 [400]
00000000: 7e35 b33d 66e4 0e3e 0abc 78be 12ac 17bd
00000010: 1311 88bd 16c6 ccba 57ef a13d 4327 a43e
00000020: b5f9 cf3d 81cf 253e 1ba6 b73e a133 233e
00000030: 5cc7 22bb e010 59bd 9d4f cf3d e2b9 ba3d
00000040: 4f9e 9e3e 5f6d 1f3d a5cd fe3d 3641 8ebd
00000050: c98b 223e 3bed 5e3e 9f9a 89bd efa0 633e
00000060: 48a4 e43d ffcf 833e 9f47 063d f609 ca3d
00000070: 1216 e13b cac6 063e 8585 863d 98e7 eb3d
00000080: 3e80 1c3e 8a08 f03d aee8 af3d d6f1 0f3d
00000090: 8d6f 8fbc 9973 f83d ce89 b83d e1a5 223e
000000a0: 2b46 463e 0d2d af3c 1a28 ba3d 858f 7cbd
000000b0: 79a5 813c 18ad e8ba 5756 4a3e 2794 753e
000000c0: bd6c 613e 8d5a 2d3e 46f1 dc3d 0770 1c3d
000000d0: 8f33 243d 53e6 f6bb b5ce 833e 80f3 663e
000000e0: 8bed 573e 5167 d2bc 730a cc3d 12e0 fd3d
000000f0: c30e ed3b f777 79bd 10b5 06be dfae 41bc
00000100: 9881 5e3e 251b 83bc c2b0 d0bd 9654 f43d
00000110: cfb6 1c3e f4ad 2d3e 60c6 913d 4820 243e
00000120: ff7d 0c3d 79f4 a93d f233 2b3e 7a1b 683e
00000130: 3972 553e 416b 6e3d b8fb 353e 4f6c 103e
00000140: c81e 473e 3e08 643d aefb 2abd 464d 953e
00000150: 28b3 903e ea46 413d 14e0 ef3c 51de 1fbe
00000160: 3a5a b83d 6a45 313e bfb9 8c3d 06e9 153e
00000170: d7b0 2ebd 4b25 983d 3fcd 803e 7ef6 663d
00000180: fa45 923d 5469 203d f357 573d aa96 693d
00000190: 919a 7f3f ed25 673f c8b8 743f 5ab4 913f
000001a0: 6a85 8d3f d459 7e3f d92e 883f 3254 843f
000001b0: 9796 843f e495 933f 664f 763f 68b1 653f
000001c0: 39b8 893f 5121 903f 21d4 783f 047d 813f
000001d0: aeb7 733f b1bf 803f 883b 863f 07b4 8f3f
000001e0: c3d0 813f c032 893f e504 943f f119 823f
000001f0: afa0 8a3f 52b6 6f3f 8e33 8c3f 6df0 883f
00000200: 42ca 813f acd9 733f 35f2 703f 7e3c 873f
00000210: 542b 8d3f 8712 843f 0fa8 803f b2f3 903f
00000220: 6624 913f eb2c 703f 6dd1 823f 4dd9 793f
00000230: f1e1 593f 110a 723f 3947 743f 693e 743f
00000240: ef0d 8d3f 8367 863f b0ce 8e3f da2f 9c3f
00000250: 296a 813f 22e9 723f c8fe 7e3f f408 873f
00000260: bd0f 773f 2778 8b3f 0294 943f 0eaf 663f
00000270: 9401 843f 4895 9b3f e439 913f c561 853f
00000280: dd91 953f 7012 8a3f abed 763f b02b 833f
00000290: f7dc 743f f1f2 893f baad 983f 56d6 4d3f
000002a0: dc61 713f 90ee 903f 4bd0 823f 3757 883f
000002b0: 22eb 6f3f 218a 763f b360 a33f be68 843f
000002c0: d07c 743f b477 863f 7217 603f fb74 7d3f
000002d0: c8e7 673f 78ef 843f 8592 933f 5abd 7d3f
000002e0: 11f2 853f 9de6 853f 1b37 8f3f 8e2d 973f
000002f0: f68f 863f 3c4d 623f e145 7c3f b029 963f
00000300: a88d 883f ca94 803f ca76 8f3f 651c 843f
00000310: 6a0f 823f dd54 893f 0787 873f bc1c 593f
00000320: 4fda 7ebc 49e5 a83c 9d16 5e3d a370 c13c
00000330: 627b de3d 61ce ca3d 8ba8 08be 03ec 003e
00000340: 2db5 583d da54 34bd 7518 4cbc 743e 793c
00000350: bf1a 0d3e aadb 02be bc06 35bd e833 273d
00000360: 772d 603d f5c2 04be 30cd d4bd 6bf5 03be
00000370: 12a0 613b e231 463d 39d2 e13d 58a6 813c
00000380: 726b 323d 4577 00bd b045 b73d de26 2cbd
00000390: 77c5 61bd b8f9 3cbd 1316 28be 14b0 ad3d
000003a0: bb71 f63d b1a3 babd 87dd 7e3c 377b 443d
000003b0: d506 f7bd 09d8 dfbd 6350 6dbd ff77 22bd
000003c0: b1c6 45bb 5c98 17be 7e93 c1bc b7d3 c3bd
000003d0: 50e7 6a3c ef28 33bd 1c5a f83d 9aac a73b
000003e0: 741c a83d e5c8 72bd 2f91 b6bd 6235 27be
000003f0: b34a d93d dc99 fcbd 06b5 af3c 055a efbc
0.08750437 0.13954315 -0.24290481 -0.037029333 -0.06643882 -0.0015622999 0.079069786 0.32061204
0.1015505 0.16192438 0.35868916 0.15937664 -0.0024838066 -0.05299461 0.10122607 0.091174856
0.30980155 0.038922664 0.12441567 -0.06946032 0.15873636 0.21770184 -0.06718945 0.2222936
0.11164147 0.25744626 0.032783147 0.09865181 0.006869086 0.1316177 0.065684356 0.115187824
0.15283296 0.11720379 0.08589302 0.035142742 -0.017509246 0.121314235 0.09010659 0.1588359
0.19362704 0.021383787 0.0908968 -0.06166031 0.015825974 -0.0017751781 0.19759499 0.23982297
0.22014137 0.16929074 0.10788207 0.038192775 0.040088233 -0.007534781 0.25743642 0.22553825
0.21086709 -0.02568403 0.099629305 0.12396254 0.0072344257 -0.060905423 -0.13155007 -0.011821478
0.21729124 -0.016004154 -0.10189964 0.11930196 0.15304111 0.16960889 0.07117915 0.1602794
0.034299847 0.082985826 0.16719034 0.22666731 0.20844354 0.058207754 0.17771804 0.14103816
0.19445336 0.055671923 -0.041743927 0.29160517 0.28261685 0.04718677 0.029281653 -0.1561215
0.09001584 0.17311636 0.06871366 0.14639673 -0.042649116 0.07428988 0.2515659 0.056387417
0.07142253 0.03916295 0.05257411 0.05702845 0.99845225 0.90292245 0.95594454 1.1383164
1.105634 0.99355817 1.0639297 1.0338194 1.0358456 1.1530118 0.962149 0.89723825
1.0759345 1.1260167 0.97198683 1.0116277 0.9520215 1.00585 1.0486917 1.1226815
1.0141834 1.0718613 1.1563994 1.0164167 1.0830287 0.93637574 1.0953233 1.0698372
1.0139849 0.95254016 0.9411958 1.0565336 1.1028848 1.0318154 1.0051287 1.132437
1.1339233 0.9381854 1.0220162 0.975972 0.85110384 0.9454661 0.9542118 0.9540773
1.1019877 1.0500339 1.1156826 1.2202103 1.0110523 0.9488698 0.99607515 1.0549607
0.9650839 1.0896043 1.1607668 0.9011086 1.0312982 1.2154932 1.1345792 1.0420462
1.1685139 1.0786877 0.964564 1.0247707 0.95649666 1.0777265 1.1928017 0.80405176
0.94289947 1.1322803 1.0219816 1.0651616 0.9371816 0.9630452 1.2763885 1.0344465
0.9550295 1.050528 0.87535775 0.99006623 0.90588045 1.038558 1.1529089 0.9911705
1.0464498 1.0461003 1.1188692 1.1810777 1.0512683 0.883991 0.98544127 1.1731472
1.066823 1.0045407 1.1208127 1.0321165 1.0160954 1.0729023 1.0588082 0.8480947
-0.0155549785 0.020617144 0.054220784 0.02361328 0.10863377 0.09902645 -0.13345544 0.12590031
0.052907158 -0.044026233 -0.012457003 0.015212644 0.13779734 -0.12779108 -0.044195876 0.040820986
0.05473086 -0.12964995 -0.10390699 -0.12886588 0.0034427685 0.048387416 0.11026425 0.01582639
0.0435595 -0.031363744 0.08948839 -0.042029254 -0.055119958 -0.046136588 -0.1641467 0.0848085
0.12033411 -0.09113253 0.015555746 0.04796907 -0.1206185 -0.10929877 -0.05793799 -0.03966522
-0.0030178244 -0.14804214 -0.0236299 -0.09561866 0.014337376 -0.04374021 0.12126562 0.0051170113
0.08208552 -0.05927362 -0.0891441 -0.16328958 0.10609951 -0.12334034 0.021448623 -0.02921773
